…
I0808 08:09:20.670696 48131 solver.cpp:87] Creating training net from net file: code/sphereface_model.prototxt
I0808 08:09:20.672296 48131 net.cpp:51] Initializing net from parameters: 
name: "SphereFaceNet"
state {
  phase: TRAIN
  level: 0
  stage: ""
}
layer {
  name: "data"
  type: "ImageData"
  top: "data"
  top: "label"
  transform_param {
    scale: 0.0078125
    mirror: true
    mean_value: 127.5
    mean_value: 127.5
    mean_value: 127.5
  }
  image_data_param {
    source: "data/CASIA-WebFace-112X96.txt"
    batch_size: 256
    shuffle: true
  }
}
layer {
  name: "conv1_1"
  type: "Convolution"
  bottom: "data"
  top: "conv1_1"
  param {
    lr_mult: 1
    decay_mult: 1
  }
  param {
    lr_mult: 2
    decay_mult: 0
  }
  convolution_param {
    num_output: 64
    pad: 1
    kernel_size: 3
    stride: 2
    weight_filler {
      type: "xavier"
    }
    bias_filler {
      type: "constant"
      value: 0
    }
  }
}
layer {
  name: "relu1_1"
  type: "PReLU"
  bottom: "conv1_1"
  top: "conv1_1"
}
layer {
  name: "conv1_2"
  type: "Convolution"
  bottom: "conv1_1"
  top: "conv1_2"
  param {
    lr_mult: 1
    decay_mult: 1
  }
  param {
    lr_mult: 0
    decay_mult: 0
  }
  convolution_param {
    num_output: 64
    pad: 1
    kernel_size: 3
    stride: 1
    weight_filler {
      type: "gaussian"
      std: 0.01
    }
    bias_filler {
      type: "constant"
      value: 0
    }
  }
}
layer {
  name: "relu1_2"
  type: "PReLU"
  bottom: "conv1_2"
  top: "conv1_2"
}
layer {
  name: "conv1_3"
  type: "Convolution"
  bottom: "conv1_2"
  top: "conv1_3"
  param {
    lr_mult: 1
    decay_mult: 1
  }
  param {
    lr_mult: 0
    decay_mult: 0
  }
  convolution_param {
    num_output: 64
    pad: 1
    kernel_size: 3
    stride: 1
    weight_filler {
      type: "gaussian"
      std: 0.01
    }
    bias_filler {
      type: "constant"
      value: 0
    }
  }
}
layer {
  name: "relu1_3"
  type: "PReLU"
  bottom: "conv1_3"
  top: "conv1_3"
}
layer {
  name: "res1_3"
  type: "Eltwise"
  bottom: "conv1_1"
  bottom: "conv1_3"
  top: "res1_3"
  eltwise_param {
    operation: SUM
  }
}
layer {
  name: "conv2_1"
  type: "Convolution"
  bottom: "res1_3"
  top: "conv2_1"
  param {
    lr_mult: 1
    decay_mult: 1
  }
  param {
    lr_mult: 2
    decay_mult: 0
  }
  convolution_param {
    num_output: 128
    pad: 1
    kernel_size: 3
    stride: 2
    weight_filler {
      type: "xavier"
    }
    bias_filler {
      type: "constant"
      value: 0
    }
  }
}
layer {
  name: "relu2_1"
  type: "PReLU"
  bottom: "conv2_1"
  top: "conv2_1"
}
layer {
  name: "conv2_2"
  type: "Convolution"
  bottom: "conv2_1"
  top: "conv2_2"
  param {
    lr_mult: 1
    decay_mult: 1
  }
  param {
    lr_mult: 0
    decay_mult: 0
  }
  convolution_param {
    num_output: 128
    pad: 1
    kernel_size: 3
    stride: 1
    weight_filler {
      type: "gaussian"
      std: 0.01
    }
    bias_filler {
      type: "constant"
      value: 0
    }
  }
}
layer {
  name: "relu2_2"
  type: "PReLU"
  bottom: "conv2_2"
  top: "conv2_2"
}
layer {
  name: "conv2_3"
  type: "Convolution"
  bottom: "conv2_2"
  top: "conv2_3"
  param {
    lr_mult: 1
    decay_mult: 1
  }
  param {
    lr_mult: 0
    decay_mult: 0
  }
  convolution_param {
    num_output: 128
    pad: 1
    kernel_size: 3
    stride: 1
    weight_filler {
      type: "gaussian"
      std: 0.01
    }
    bias_filler {
      type: "constant"
      value: 0
    }
  }
}
layer {
  name: "relu2_3"
  type: "PReLU"
  bottom: "conv2_3"
  top: "conv2_3"
}
layer {
  name: "res2_3"
  type: "Eltwise"
  bottom: "conv2_1"
  bottom: "conv2_3"
  top: "res2_3"
  eltwise_param {
    operation: SUM
  }
}
layer {
  name: "conv2_4"
  type: "Convolution"
  bottom: "res2_3"
  top: "conv2_4"
  param {
    lr_mult: 1
    decay_mult: 1
  }
  param {
    lr_mult: 0
    decay_mult: 0
  }
  convolution_param {
    num_output: 128
    pad: 1
    kernel_size: 3
    stride: 1
    weight_filler {
      type: "gaussian"
      std: 0.01
    }
    bias_filler {
      type: "constant"
      value: 0
    }
  }
}
layer {
  name: "relu2_4"
  type: "PReLU"
  bottom: "conv2_4"
  top: "conv2_4"
}
layer {
  name: "conv2_5"
  type: "Convolution"
  bottom: "conv2_4"
  top: "conv2_5"
  param {
    lr_mult: 1
    decay_mult: 1
  }
  param {
    lr_mult: 0
    decay_mult: 0
  }
  convolution_param {
    num_output: 128
    pad: 1
    kernel_size: 3
    stride: 1
    weight_filler {
      type: "gaussian"
      std: 0.01
    }
    bias_filler {
      type: "constant"
      value: 0
    }
  }
}
layer {
  name: "relu2_5"
  type: "PReLU"
  bottom: "conv2_5"
  top: "conv2_5"
}
layer {
  name: "res2_5"
  type: "Eltwise"
  bottom: "res2_3"
  bottom: "conv2_5"
  top: "res2_5"
  eltwise_param {
    operation: SUM
  }
}
layer {
  name: "conv3_1"
  type: "Convolution"
  bottom: "res2_5"
  top: "conv3_1"
  param {
    lr_mult: 1
    decay_mult: 1
  }
  param {
    lr_mult: 2
    decay_mult: 0
  }
  convolution_param {
    num_output: 256
    pad: 1
    kernel_size: 3
    stride: 2
    weight_filler {
      type: "xavier"
    }
    bias_filler {
      type: "constant"
      value: 0
    }
  }
}
layer {
  name: "relu3_1"
  type: "PReLU"
  bottom: "conv3_1"
  top: "conv3_1"
}
layer {
  name: "conv3_2"
  type: "Convolution"
  bottom: "conv3_1"
  top: "conv3_2"
  param {
    lr_mult: 1
    decay_mult: 1
  }
  param {
    lr_mult: 0
    decay_mult: 0
  }
  convolution_param {
    num_output: 256
    pad: 1
    kernel_size: 3
    stride: 1
    weight_filler {
      type: "gaussian"
      std: 0.01
    }
    bias_filler {
      type: "constant"
      value: 0
    }
  }
}
layer {
  name: "relu3_2"
  type: "PReLU"
  bottom: "conv3_2"
  top: "conv3_2"
}
layer {
  name: "conv3_3"
  type: "Convolution"
  bottom: "conv3_2"
  top: "conv3_3"
  param {
    lr_mult: 1
    decay_mult: 1
  }
  param {
    lr_mult: 0
    decay_mult: 0
  }
  convolution_param {
    num_output: 256
    pad: 1
    kernel_size: 3
    stride: 1
    weight_filler {
      type: "gaussian"
      std: 0.01
    }
    bias_filler {
      type: "constant"
      value: 0
    }
  }
}
layer {
  name: "relu3_3"
  type: "PReLU"
  bottom: "conv3_3"
  top: "conv3_3"
}
layer {
  name: "res3_3"
  type: "Eltwise"
  bottom: "conv3_1"
  bottom: "conv3_3"
  top: "res3_3"
  eltwise_param {
    operation: SUM
  }
}
layer {
  name: "conv3_4"
  type: "Convolution"
  bottom: "res3_3"
  top: "conv3_4"
  param {
    lr_mult: 1
    decay_mult: 1
  }
  param {
    lr_mult: 0
    decay_mult: 0
  }
  convolution_param {
    num_output: 256
    pad: 1
    kernel_size: 3
    stride: 1
    weight_filler {
      type: "gaussian"
      std: 0.01
    }
    bias_filler {
      type: "constant"
      value: 0
    }
  }
}
layer {
  name: "relu3_4"
  type: "PReLU"
  bottom: "conv3_4"
  top: "conv3_4"
}
layer {
  name: "conv3_5"
  type: "Convolution"
  bottom: "conv3_4"
  top: "conv3_5"
  param {
    lr_mult: 1
    decay_mult: 1
  }
  param {
    lr_mult: 0
    decay_mult: 0
  }
  convolution_param {
    num_output: 256
    pad: 1
    kernel_size: 3
    stride: 1
    weight_filler {
      type: "gaussian"
      std: 0.01
    }
    bias_filler {
      type: "constant"
      value: 0
    }
  }
}
layer {
  name: "relu3_5"
  type: "PReLU"
  bottom: "conv3_5"
  top: "conv3_5"
}
layer {
  name: "res3_5"
  type: "Eltwise"
  bottom: "res3_3"
  bottom: "conv3_5"
  top: "res3_5"
  eltwise_param {
    operation: SUM
  }
}
layer {
  name: "conv3_6"
  type: "Convolution"
  bottom: "res3_5"
  top: "conv3_6"
  param {
    lr_mult: 1
    decay_mult: 1
  }
  param {
    lr_mult: 0
    decay_mult: 0
  }
  convolution_param {
    num_output: 256
    pad: 1
    kernel_size: 3
    stride: 1
    weight_filler {
      type: "gaussian"
      std: 0.01
    }
    bias_filler {
      type: "constant"
      value: 0
    }
  }
}
layer {
  name: "relu3_6"
  type: "PReLU"
  bottom: "conv3_6"
  top: "conv3_6"
}
layer {
  name: "conv3_7"
  type: "Convolution"
  bottom: "conv3_6"
  top: "conv3_7"
  param {
    lr_mult: 1
    decay_mult: 1
  }
  param {
    lr_mult: 0
    decay_mult: 0
  }
  convolution_param {
    num_output: 256
    pad: 1
    kernel_size: 3
    stride: 1
    weight_filler {
      type: "gaussian"
      std: 0.01
    }
    bias_filler {
      type: "constant"
      value: 0
    }
  }
}
layer {
  name: "relu3_7"
  type: "PReLU"
  bottom: "conv3_7"
  top: "conv3_7"
}
layer {
  name: "res3_7"
  type: "Eltwise"
  bottom: "res3_5"
  bottom: "conv3_7"
  top: "res3_7"
  eltwise_param {
    operation: SUM
  }
}
layer {
  name: "conv3_8"
  type: "Convolution"
  bottom: "res3_7"
  top: "conv3_8"
  param {
    lr_mult: 1
    decay_mult: 1
  }
  param {
    lr_mult: 0
    decay_mult: 0
  }
  convolution_param {
    num_output: 256
    pad: 1
    kernel_size: 3
    stride: 1
    weight_filler {
      type: "gaussian"
      std: 0.01
    }
    bias_filler {
      type: "constant"
      value: 0
    }
  }
}
layer {
  name: "relu3_8"
  type: "PReLU"
  bottom: "conv3_8"
  top: "conv3_8"
}
layer {
  name: "conv3_9"
  type: "Convolution"
  bottom: "conv3_8"
  top: "conv3_9"
  param {
    lr_mult: 1
    decay_mult: 1
  }
  param {
    lr_mult: 0
    decay_mult: 0
  }
  convolution_param {
    num_output: 256
    pad: 1
    kernel_size: 3
    stride: 1
    weight_filler {
      type: "gaussian"
      std: 0.01
    }
    bias_filler {
      type: "constant"
      value: 0
    }
  }
}
layer {
  name: "relu3_9"
  type: "PReLU"
  bottom: "conv3_9"
  top: "conv3_9"
}
layer {
  name: "res3_9"
  type: "Eltwise"
  bottom: "res3_7"
  bottom: "conv3_9"
  top: "res3_9"
  eltwise_param {
    operation: SUM
  }
}
layer {
  name: "conv4_1"
  type: "Convolution"
  bottom: "res3_9"
  top: "conv4_1"
  param {
    lr_mult: 1
    decay_mult: 1
  }
  param {
    lr_mult: 2
    decay_mult: 0
  }
  convolution_param {
    num_output: 512
    pad: 1
    kernel_size: 3
    stride: 2
    weight_filler {
      type: "xavier"
    }
    bias_filler {
      type: "constant"
      value: 0
    }
  }
}
layer {
  name: "relu4_1"
  type: "PReLU"
  bottom: "conv4_1"
  top: "conv4_1"
}
layer {
  name: "conv4_2"
  type: "Convolution"
  bottom: "conv4_1"
  top: "conv4_2"
  param {
    lr_mult: 1
    decay_mult: 1
  }
  param {
    lr_mult: 0
    decay_mult: 0
  }
  convolution_param {
    num_output: 512
    pad: 1
    kernel_size: 3
    stride: 1
    weight_filler {
      type: "gaussian"
      std: 0.01
    }
    bias_filler {
      type: "constant"
      value: 0
    }
  }
}
layer {
  name: "relu4_2"
  type: "PReLU"
  bottom: "conv4_2"
  top: "conv4_2"
}
layer {
  name: "conv4_3"
  type: "Convolution"
  bottom: "conv4_2"
  top: "conv4_3"
  param {
    lr_mult: 1
    decay_mult: 1
  }
  param {
    lr_mult: 0
    decay_mult: 0
  }
  convolution_param {
    num_output: 512
    pad: 1
    kernel_size: 3
    stride: 1
    weight_filler {
      type: "gaussian"
      std: 0.01
    }
    bias_filler {
      type: "constant"
      value: 0
    }
  }
}
layer {
  name: "relu4_3"
  type: "PReLU"
  bottom: "conv4_3"
  top: "conv4_3"
}
layer {
  name: "res4_3"
  type: "Eltwise"
  bottom: "conv4_1"
  bottom: "conv4_3"
  top: "res4_3"
  eltwise_param {
    operation: SUM
  }
}
layer {
  name: "fc5"
  type: "InnerProduct"
  bottom: "res4_3"
  top: "fc5"
  param {
    lr_mult: 1
    decay_mult: 1
  }
  param {
    lr_mult: 2
    decay_mult: 0
  }
  inner_product_param {
    num_output: 512
    weight_filler {
      type: "xavier"
    }
    bias_filler {
      type: "constant"
      value: 0
    }
  }
}
layer {
  name: "fc6"
  type: "MarginInnerProduct"
  bottom: "fc5"
  bottom: "label"
  top: "fc6"
  top: "lambda"
  param {
    lr_mult: 1
    decay_mult: 1
  }
  margin_inner_product_param {
    num_output: 10572
    type: QUADRUPLE
    weight_filler {
      type: "xavier"
    }
    base: 1000
    gamma: 0.12
    power: 1
    iteration: 0
    lambda_min: 5
  }
}
layer {
  name: "softmax_loss"
  type: "SoftmaxWithLoss"
  bottom: "fc6"
  bottom: "label"
  top: "softmax_loss"
}
I0808 08:09:20.672675 48131 layer_factory.hpp:77] Creating layer data
I0808 08:09:20.672752 48131 net.cpp:84] Creating Layer data
I0808 08:09:20.672762 48131 net.cpp:380] data -> data
I0808 08:09:20.672790 48131 net.cpp:380] data -> label
I0808 08:09:20.673197 48131 image_data_layer.cpp:38] Opening file data/CASIA-WebFace-112X96.txt
I0808 08:09:20.869009 48131 image_data_layer.cpp:53] Shuffling data
I0808 08:09:20.949386 48131 image_data_layer.cpp:63] A total of 490606 images.
I0808 08:09:20.952599 48131 image_data_layer.cpp:90] output data size: 256,3,112,96
I0808 08:09:21.048885 48131 net.cpp:122] Setting up data
I0808 08:09:21.048940 48131 net.cpp:129] Top shape: 256 3 112 96 (8257536)
I0808 08:09:21.048948 48131 net.cpp:129] Top shape: 256 (256)
I0808 08:09:21.048952 48131 net.cpp:137] Memory required for data: 33031168
I0808 08:09:21.048965 48131 layer_factory.hpp:77] Creating layer label_data_1_split
I0808 08:09:21.049064 48131 net.cpp:84] Creating Layer label_data_1_split
I0808 08:09:21.049082 48131 net.cpp:406] label_data_1_split <- label
I0808 08:09:21.049109 48131 net.cpp:380] label_data_1_split -> label_data_1_split_0
I0808 08:09:21.049129 48131 net.cpp:380] label_data_1_split -> label_data_1_split_1
I0808 08:09:21.049289 48131 net.cpp:122] Setting up label_data_1_split
I0808 08:09:21.049299 48131 net.cpp:129] Top shape: 256 (256)
I0808 08:09:21.049304 48131 net.cpp:129] Top shape: 256 (256)
I0808 08:09:21.049307 48131 net.cpp:137] Memory required for data: 33033216
I0808 08:09:21.049310 48131 layer_factory.hpp:77] Creating layer conv1_1
I0808 08:09:21.049350 48131 net.cpp:84] Creating Layer conv1_1
I0808 08:09:21.049356 48131 net.cpp:406] conv1_1 <- data
I0808 08:09:21.049365 48131 net.cpp:380] conv1_1 -> conv1_1
I0808 08:09:21.672224 48131 net.cpp:122] Setting up conv1_1
I0808 08:09:21.672267 48131 net.cpp:129] Top shape: 256 64 56 48 (44040192)
I0808 08:09:21.672272 48131 net.cpp:137] Memory required for data: 209193984
I0808 08:09:21.672302 48131 layer_factory.hpp:77] Creating layer relu1_1
I0808 08:09:21.672315 48131 net.cpp:84] Creating Layer relu1_1
I0808 08:09:21.672338 48131 net.cpp:406] relu1_1 <- conv1_1
I0808 08:09:21.672345 48131 net.cpp:367] relu1_1 -> conv1_1 (in-place)
I0808 08:09:21.673471 48131 net.cpp:122] Setting up relu1_1
I0808 08:09:21.673486 48131 net.cpp:129] Top shape: 256 64 56 48 (44040192)
I0808 08:09:21.673491 48131 net.cpp:137] Memory required for data: 385354752
I0808 08:09:21.673498 48131 layer_factory.hpp:77] Creating layer conv1_1_relu1_1_0_split
I0808 08:09:21.673507 48131 net.cpp:84] Creating Layer conv1_1_relu1_1_0_split
I0808 08:09:21.673511 48131 net.cpp:406] conv1_1_relu1_1_0_split <- conv1_1
I0808 08:09:21.673517 48131 net.cpp:380] conv1_1_relu1_1_0_split -> conv1_1_relu1_1_0_split_0
I0808 08:09:21.673526 48131 net.cpp:380] conv1_1_relu1_1_0_split -> conv1_1_relu1_1_0_split_1
I0808 08:09:21.673563 48131 net.cpp:122] Setting up conv1_1_relu1_1_0_split
I0808 08:09:21.673571 48131 net.cpp:129] Top shape: 256 64 56 48 (44040192)
I0808 08:09:21.673575 48131 net.cpp:129] Top shape: 256 64 56 48 (44040192)
I0808 08:09:21.673578 48131 net.cpp:137] Memory required for data: 737676288
I0808 08:09:21.673583 48131 layer_factory.hpp:77] Creating layer conv1_2
I0808 08:09:21.673599 48131 net.cpp:84] Creating Layer conv1_2
I0808 08:09:21.673602 48131 net.cpp:406] conv1_2 <- conv1_1_relu1_1_0_split_0
I0808 08:09:21.673609 48131 net.cpp:380] conv1_2 -> conv1_2
I0808 08:09:21.677271 48131 net.cpp:122] Setting up conv1_2
I0808 08:09:21.677287 48131 net.cpp:129] Top shape: 256 64 56 48 (44040192)
I0808 08:09:21.677291 48131 net.cpp:137] Memory required for data: 913837056
I0808 08:09:21.677301 48131 layer_factory.hpp:77] Creating layer relu1_2
I0808 08:09:21.677307 48131 net.cpp:84] Creating Layer relu1_2
I0808 08:09:21.677311 48131 net.cpp:406] relu1_2 <- conv1_2
I0808 08:09:21.677343 48131 net.cpp:367] relu1_2 -> conv1_2 (in-place)
I0808 08:09:21.678417 48131 net.cpp:122] Setting up relu1_2
I0808 08:09:21.678431 48131 net.cpp:129] Top shape: 256 64 56 48 (44040192)
I0808 08:09:21.678433 48131 net.cpp:137] Memory required for data: 1089997824
I0808 08:09:21.678439 48131 layer_factory.hpp:77] Creating layer conv1_3
I0808 08:09:21.678455 48131 net.cpp:84] Creating Layer conv1_3
I0808 08:09:21.678460 48131 net.cpp:406] conv1_3 <- conv1_2
I0808 08:09:21.678467 48131 net.cpp:380] conv1_3 -> conv1_3
I0808 08:09:21.681279 48131 net.cpp:122] Setting up conv1_3
I0808 08:09:21.681296 48131 net.cpp:129] Top shape: 256 64 56 48 (44040192)
I0808 08:09:21.681301 48131 net.cpp:137] Memory required for data: 1266158592
I0808 08:09:21.681308 48131 layer_factory.hpp:77] Creating layer relu1_3
I0808 08:09:21.681315 48131 net.cpp:84] Creating Layer relu1_3
I0808 08:09:21.681318 48131 net.cpp:406] relu1_3 <- conv1_3
I0808 08:09:21.681324 48131 net.cpp:367] relu1_3 -> conv1_3 (in-place)
I0808 08:09:21.682399 48131 net.cpp:122] Setting up relu1_3
I0808 08:09:21.682411 48131 net.cpp:129] Top shape: 256 64 56 48 (44040192)
I0808 08:09:21.682415 48131 net.cpp:137] Memory required for data: 1442319360
I0808 08:09:21.682426 48131 layer_factory.hpp:77] Creating layer res1_3
I0808 08:09:21.682442 48131 net.cpp:84] Creating Layer res1_3
I0808 08:09:21.682446 48131 net.cpp:406] res1_3 <- conv1_1_relu1_1_0_split_1
I0808 08:09:21.682451 48131 net.cpp:406] res1_3 <- conv1_3
I0808 08:09:21.682457 48131 net.cpp:380] res1_3 -> res1_3
I0808 08:09:21.682489 48131 net.cpp:122] Setting up res1_3
I0808 08:09:21.682497 48131 net.cpp:129] Top shape: 256 64 56 48 (44040192)
I0808 08:09:21.682500 48131 net.cpp:137] Memory required for data: 1618480128
I0808 08:09:21.682502 48131 layer_factory.hpp:77] Creating layer conv2_1
I0808 08:09:21.682518 48131 net.cpp:84] Creating Layer conv2_1
I0808 08:09:21.682523 48131 net.cpp:406] conv2_1 <- res1_3
I0808 08:09:21.682529 48131 net.cpp:380] conv2_1 -> conv2_1
I0808 08:09:21.685565 48131 net.cpp:122] Setting up conv2_1
I0808 08:09:21.685580 48131 net.cpp:129] Top shape: 256 128 28 24 (22020096)
I0808 08:09:21.685585 48131 net.cpp:137] Memory required for data: 1706560512
I0808 08:09:21.685591 48131 layer_factory.hpp:77] Creating layer relu2_1
I0808 08:09:21.685600 48131 net.cpp:84] Creating Layer relu2_1
I0808 08:09:21.685603 48131 net.cpp:406] relu2_1 <- conv2_1
I0808 08:09:21.685608 48131 net.cpp:367] relu2_1 -> conv2_1 (in-place)
I0808 08:09:21.685770 48131 net.cpp:122] Setting up relu2_1
I0808 08:09:21.685780 48131 net.cpp:129] Top shape: 256 128 28 24 (22020096)
I0808 08:09:21.685782 48131 net.cpp:137] Memory required for data: 1794640896
I0808 08:09:21.685789 48131 layer_factory.hpp:77] Creating layer conv2_1_relu2_1_0_split
I0808 08:09:21.685794 48131 net.cpp:84] Creating Layer conv2_1_relu2_1_0_split
I0808 08:09:21.685797 48131 net.cpp:406] conv2_1_relu2_1_0_split <- conv2_1
I0808 08:09:21.685802 48131 net.cpp:380] conv2_1_relu2_1_0_split -> conv2_1_relu2_1_0_split_0
I0808 08:09:21.685811 48131 net.cpp:380] conv2_1_relu2_1_0_split -> conv2_1_relu2_1_0_split_1
I0808 08:09:21.685848 48131 net.cpp:122] Setting up conv2_1_relu2_1_0_split
I0808 08:09:21.685858 48131 net.cpp:129] Top shape: 256 128 28 24 (22020096)
I0808 08:09:21.685861 48131 net.cpp:129] Top shape: 256 128 28 24 (22020096)
I0808 08:09:21.685864 48131 net.cpp:137] Memory required for data: 1970801664
I0808 08:09:21.685868 48131 layer_factory.hpp:77] Creating layer conv2_2
I0808 08:09:21.685880 48131 net.cpp:84] Creating Layer conv2_2
I0808 08:09:21.685884 48131 net.cpp:406] conv2_2 <- conv2_1_relu2_1_0_split_0
I0808 08:09:21.685889 48131 net.cpp:380] conv2_2 -> conv2_2
I0808 08:09:21.692613 48131 net.cpp:122] Setting up conv2_2
I0808 08:09:21.692628 48131 net.cpp:129] Top shape: 256 128 28 24 (22020096)
I0808 08:09:21.692632 48131 net.cpp:137] Memory required for data: 2058882048
I0808 08:09:21.692639 48131 layer_factory.hpp:77] Creating layer relu2_2
I0808 08:09:21.692647 48131 net.cpp:84] Creating Layer relu2_2
I0808 08:09:21.692664 48131 net.cpp:406] relu2_2 <- conv2_2
I0808 08:09:21.692669 48131 net.cpp:367] relu2_2 -> conv2_2 (in-place)
I0808 08:09:21.692834 48131 net.cpp:122] Setting up relu2_2
I0808 08:09:21.692844 48131 net.cpp:129] Top shape: 256 128 28 24 (22020096)
I0808 08:09:21.692847 48131 net.cpp:137] Memory required for data: 2146962432
I0808 08:09:21.692852 48131 layer_factory.hpp:77] Creating layer conv2_3
I0808 08:09:21.692865 48131 net.cpp:84] Creating Layer conv2_3
I0808 08:09:21.692868 48131 net.cpp:406] conv2_3 <- conv2_2
I0808 08:09:21.692876 48131 net.cpp:380] conv2_3 -> conv2_3
I0808 08:09:21.699579 48131 net.cpp:122] Setting up conv2_3
I0808 08:09:21.699594 48131 net.cpp:129] Top shape: 256 128 28 24 (22020096)
I0808 08:09:21.699597 48131 net.cpp:137] Memory required for data: 2235042816
I0808 08:09:21.699610 48131 layer_factory.hpp:77] Creating layer relu2_3
I0808 08:09:21.699620 48131 net.cpp:84] Creating Layer relu2_3
I0808 08:09:21.699625 48131 net.cpp:406] relu2_3 <- conv2_3
I0808 08:09:21.699630 48131 net.cpp:367] relu2_3 -> conv2_3 (in-place)
I0808 08:09:21.699791 48131 net.cpp:122] Setting up relu2_3
I0808 08:09:21.699807 48131 net.cpp:129] Top shape: 256 128 28 24 (22020096)
I0808 08:09:21.699810 48131 net.cpp:137] Memory required for data: 2323123200
I0808 08:09:21.699815 48131 layer_factory.hpp:77] Creating layer res2_3
I0808 08:09:21.699822 48131 net.cpp:84] Creating Layer res2_3
I0808 08:09:21.699826 48131 net.cpp:406] res2_3 <- conv2_1_relu2_1_0_split_1
I0808 08:09:21.699831 48131 net.cpp:406] res2_3 <- conv2_3
I0808 08:09:21.699834 48131 net.cpp:380] res2_3 -> res2_3
I0808 08:09:21.699863 48131 net.cpp:122] Setting up res2_3
I0808 08:09:21.699868 48131 net.cpp:129] Top shape: 256 128 28 24 (22020096)
I0808 08:09:21.699872 48131 net.cpp:137] Memory required for data: 2411203584
I0808 08:09:21.699874 48131 layer_factory.hpp:77] Creating layer res2_3_res2_3_0_split
I0808 08:09:21.699879 48131 net.cpp:84] Creating Layer res2_3_res2_3_0_split
I0808 08:09:21.699884 48131 net.cpp:406] res2_3_res2_3_0_split <- res2_3
I0808 08:09:21.699889 48131 net.cpp:380] res2_3_res2_3_0_split -> res2_3_res2_3_0_split_0
I0808 08:09:21.699897 48131 net.cpp:380] res2_3_res2_3_0_split -> res2_3_res2_3_0_split_1
I0808 08:09:21.699934 48131 net.cpp:122] Setting up res2_3_res2_3_0_split
I0808 08:09:21.699944 48131 net.cpp:129] Top shape: 256 128 28 24 (22020096)
I0808 08:09:21.699947 48131 net.cpp:129] Top shape: 256 128 28 24 (22020096)
I0808 08:09:21.699950 48131 net.cpp:137] Memory required for data: 2587364352
I0808 08:09:21.699954 48131 layer_factory.hpp:77] Creating layer conv2_4
I0808 08:09:21.699965 48131 net.cpp:84] Creating Layer conv2_4
I0808 08:09:21.699967 48131 net.cpp:406] conv2_4 <- res2_3_res2_3_0_split_0
I0808 08:09:21.699975 48131 net.cpp:380] conv2_4 -> conv2_4
I0808 08:09:21.706672 48131 net.cpp:122] Setting up conv2_4
I0808 08:09:21.706691 48131 net.cpp:129] Top shape: 256 128 28 24 (22020096)
I0808 08:09:21.706693 48131 net.cpp:137] Memory required for data: 2675444736
I0808 08:09:21.706701 48131 layer_factory.hpp:77] Creating layer relu2_4
I0808 08:09:21.706707 48131 net.cpp:84] Creating Layer relu2_4
I0808 08:09:21.706712 48131 net.cpp:406] relu2_4 <- conv2_4
I0808 08:09:21.706717 48131 net.cpp:367] relu2_4 -> conv2_4 (in-place)
I0808 08:09:21.706877 48131 net.cpp:122] Setting up relu2_4
I0808 08:09:21.706887 48131 net.cpp:129] Top shape: 256 128 28 24 (22020096)
I0808 08:09:21.706889 48131 net.cpp:137] Memory required for data: 2763525120
I0808 08:09:21.706893 48131 layer_factory.hpp:77] Creating layer conv2_5
I0808 08:09:21.706905 48131 net.cpp:84] Creating Layer conv2_5
I0808 08:09:21.706909 48131 net.cpp:406] conv2_5 <- conv2_4
I0808 08:09:21.706918 48131 net.cpp:380] conv2_5 -> conv2_5
I0808 08:09:21.713634 48131 net.cpp:122] Setting up conv2_5
I0808 08:09:21.713649 48131 net.cpp:129] Top shape: 256 128 28 24 (22020096)
I0808 08:09:21.713652 48131 net.cpp:137] Memory required for data: 2851605504
I0808 08:09:21.713660 48131 layer_factory.hpp:77] Creating layer relu2_5
I0808 08:09:21.713667 48131 net.cpp:84] Creating Layer relu2_5
I0808 08:09:21.713685 48131 net.cpp:406] relu2_5 <- conv2_5
I0808 08:09:21.713690 48131 net.cpp:367] relu2_5 -> conv2_5 (in-place)
I0808 08:09:21.713855 48131 net.cpp:122] Setting up relu2_5
I0808 08:09:21.713865 48131 net.cpp:129] Top shape: 256 128 28 24 (22020096)
I0808 08:09:21.713867 48131 net.cpp:137] Memory required for data: 2939685888
I0808 08:09:21.713873 48131 layer_factory.hpp:77] Creating layer res2_5
I0808 08:09:21.713881 48131 net.cpp:84] Creating Layer res2_5
I0808 08:09:21.713886 48131 net.cpp:406] res2_5 <- res2_3_res2_3_0_split_1
I0808 08:09:21.713889 48131 net.cpp:406] res2_5 <- conv2_5
I0808 08:09:21.713894 48131 net.cpp:380] res2_5 -> res2_5
I0808 08:09:21.713922 48131 net.cpp:122] Setting up res2_5
I0808 08:09:21.713927 48131 net.cpp:129] Top shape: 256 128 28 24 (22020096)
I0808 08:09:21.713930 48131 net.cpp:137] Memory required for data: 3027766272
I0808 08:09:21.713933 48131 layer_factory.hpp:77] Creating layer conv3_1
I0808 08:09:21.713953 48131 net.cpp:84] Creating Layer conv3_1
I0808 08:09:21.713955 48131 net.cpp:406] conv3_1 <- res2_5
I0808 08:09:21.713963 48131 net.cpp:380] conv3_1 -> conv3_1
I0808 08:09:21.718089 48131 net.cpp:122] Setting up conv3_1
I0808 08:09:21.718106 48131 net.cpp:129] Top shape: 256 256 14 12 (11010048)
I0808 08:09:21.718108 48131 net.cpp:137] Memory required for data: 3071806464
I0808 08:09:21.718114 48131 layer_factory.hpp:77] Creating layer relu3_1
I0808 08:09:21.718123 48131 net.cpp:84] Creating Layer relu3_1
I0808 08:09:21.718127 48131 net.cpp:406] relu3_1 <- conv3_1
I0808 08:09:21.718132 48131 net.cpp:367] relu3_1 -> conv3_1 (in-place)
I0808 08:09:21.718266 48131 net.cpp:122] Setting up relu3_1
I0808 08:09:21.718273 48131 net.cpp:129] Top shape: 256 256 14 12 (11010048)
I0808 08:09:21.718276 48131 net.cpp:137] Memory required for data: 3115846656
I0808 08:09:21.718281 48131 layer_factory.hpp:77] Creating layer conv3_1_relu3_1_0_split
I0808 08:09:21.718288 48131 net.cpp:84] Creating Layer conv3_1_relu3_1_0_split
I0808 08:09:21.718292 48131 net.cpp:406] conv3_1_relu3_1_0_split <- conv3_1
I0808 08:09:21.718297 48131 net.cpp:380] conv3_1_relu3_1_0_split -> conv3_1_relu3_1_0_split_0
I0808 08:09:21.718303 48131 net.cpp:380] conv3_1_relu3_1_0_split -> conv3_1_relu3_1_0_split_1
I0808 08:09:21.718345 48131 net.cpp:122] Setting up conv3_1_relu3_1_0_split
I0808 08:09:21.718351 48131 net.cpp:129] Top shape: 256 256 14 12 (11010048)
I0808 08:09:21.718355 48131 net.cpp:129] Top shape: 256 256 14 12 (11010048)
I0808 08:09:21.718358 48131 net.cpp:137] Memory required for data: 3203927040
I0808 08:09:21.718363 48131 layer_factory.hpp:77] Creating layer conv3_2
I0808 08:09:21.718374 48131 net.cpp:84] Creating Layer conv3_2
I0808 08:09:21.718376 48131 net.cpp:406] conv3_2 <- conv3_1_relu3_1_0_split_0
I0808 08:09:21.718384 48131 net.cpp:380] conv3_2 -> conv3_2
I0808 08:09:21.738243 48131 net.cpp:122] Setting up conv3_2
I0808 08:09:21.738260 48131 net.cpp:129] Top shape: 256 256 14 12 (11010048)
I0808 08:09:21.738265 48131 net.cpp:137] Memory required for data: 3247967232
I0808 08:09:21.738271 48131 layer_factory.hpp:77] Creating layer relu3_2
I0808 08:09:21.738277 48131 net.cpp:84] Creating Layer relu3_2
I0808 08:09:21.738281 48131 net.cpp:406] relu3_2 <- conv3_2
I0808 08:09:21.738286 48131 net.cpp:367] relu3_2 -> conv3_2 (in-place)
I0808 08:09:21.738430 48131 net.cpp:122] Setting up relu3_2
I0808 08:09:21.738438 48131 net.cpp:129] Top shape: 256 256 14 12 (11010048)
I0808 08:09:21.738441 48131 net.cpp:137] Memory required for data: 3292007424
I0808 08:09:21.738445 48131 layer_factory.hpp:77] Creating layer conv3_3
I0808 08:09:21.738458 48131 net.cpp:84] Creating Layer conv3_3
I0808 08:09:21.738461 48131 net.cpp:406] conv3_3 <- conv3_2
I0808 08:09:21.738469 48131 net.cpp:380] conv3_3 -> conv3_3
I0808 08:09:21.758564 48131 net.cpp:122] Setting up conv3_3
I0808 08:09:21.758602 48131 net.cpp:129] Top shape: 256 256 14 12 (11010048)
I0808 08:09:21.758606 48131 net.cpp:137] Memory required for data: 3336047616
I0808 08:09:21.758620 48131 layer_factory.hpp:77] Creating layer relu3_3
I0808 08:09:21.758646 48131 net.cpp:84] Creating Layer relu3_3
I0808 08:09:21.758651 48131 net.cpp:406] relu3_3 <- conv3_3
I0808 08:09:21.758656 48131 net.cpp:367] relu3_3 -> conv3_3 (in-place)
I0808 08:09:21.758829 48131 net.cpp:122] Setting up relu3_3
I0808 08:09:21.758839 48131 net.cpp:129] Top shape: 256 256 14 12 (11010048)
I0808 08:09:21.758842 48131 net.cpp:137] Memory required for data: 3380087808
I0808 08:09:21.758854 48131 layer_factory.hpp:77] Creating layer res3_3
I0808 08:09:21.758862 48131 net.cpp:84] Creating Layer res3_3
I0808 08:09:21.758864 48131 net.cpp:406] res3_3 <- conv3_1_relu3_1_0_split_1
I0808 08:09:21.758869 48131 net.cpp:406] res3_3 <- conv3_3
I0808 08:09:21.758880 48131 net.cpp:380] res3_3 -> res3_3
I0808 08:09:21.758919 48131 net.cpp:122] Setting up res3_3
I0808 08:09:21.758926 48131 net.cpp:129] Top shape: 256 256 14 12 (11010048)
I0808 08:09:21.758929 48131 net.cpp:137] Memory required for data: 3424128000
I0808 08:09:21.758932 48131 layer_factory.hpp:77] Creating layer res3_3_res3_3_0_split
I0808 08:09:21.758942 48131 net.cpp:84] Creating Layer res3_3_res3_3_0_split
I0808 08:09:21.758946 48131 net.cpp:406] res3_3_res3_3_0_split <- res3_3
I0808 08:09:21.758951 48131 net.cpp:380] res3_3_res3_3_0_split -> res3_3_res3_3_0_split_0
I0808 08:09:21.758960 48131 net.cpp:380] res3_3_res3_3_0_split -> res3_3_res3_3_0_split_1
I0808 08:09:21.759006 48131 net.cpp:122] Setting up res3_3_res3_3_0_split
I0808 08:09:21.759013 48131 net.cpp:129] Top shape: 256 256 14 12 (11010048)
I0808 08:09:21.759017 48131 net.cpp:129] Top shape: 256 256 14 12 (11010048)
I0808 08:09:21.759021 48131 net.cpp:137] Memory required for data: 3512208384
I0808 08:09:21.759022 48131 layer_factory.hpp:77] Creating layer conv3_4
I0808 08:09:21.759033 48131 net.cpp:84] Creating Layer conv3_4
I0808 08:09:21.759037 48131 net.cpp:406] conv3_4 <- res3_3_res3_3_0_split_0
I0808 08:09:21.759044 48131 net.cpp:380] conv3_4 -> conv3_4
I0808 08:09:21.778610 48131 net.cpp:122] Setting up conv3_4
I0808 08:09:21.778626 48131 net.cpp:129] Top shape: 256 256 14 12 (11010048)
I0808 08:09:21.778630 48131 net.cpp:137] Memory required for data: 3556248576
I0808 08:09:21.778638 48131 layer_factory.hpp:77] Creating layer relu3_4
I0808 08:09:21.778645 48131 net.cpp:84] Creating Layer relu3_4
I0808 08:09:21.778648 48131 net.cpp:406] relu3_4 <- conv3_4
I0808 08:09:21.778661 48131 net.cpp:367] relu3_4 -> conv3_4 (in-place)
I0808 08:09:21.778811 48131 net.cpp:122] Setting up relu3_4
I0808 08:09:21.778820 48131 net.cpp:129] Top shape: 256 256 14 12 (11010048)
I0808 08:09:21.778823 48131 net.cpp:137] Memory required for data: 3600288768
I0808 08:09:21.778828 48131 layer_factory.hpp:77] Creating layer conv3_5
I0808 08:09:21.778841 48131 net.cpp:84] Creating Layer conv3_5
I0808 08:09:21.778846 48131 net.cpp:406] conv3_5 <- conv3_4
I0808 08:09:21.778851 48131 net.cpp:380] conv3_5 -> conv3_5
I0808 08:09:21.798452 48131 net.cpp:122] Setting up conv3_5
I0808 08:09:21.798468 48131 net.cpp:129] Top shape: 256 256 14 12 (11010048)
I0808 08:09:21.798471 48131 net.cpp:137] Memory required for data: 3644328960
I0808 08:09:21.798478 48131 layer_factory.hpp:77] Creating layer relu3_5
I0808 08:09:21.798485 48131 net.cpp:84] Creating Layer relu3_5
I0808 08:09:21.798488 48131 net.cpp:406] relu3_5 <- conv3_5
I0808 08:09:21.798493 48131 net.cpp:367] relu3_5 -> conv3_5 (in-place)
I0808 08:09:21.799492 48131 net.cpp:122] Setting up relu3_5
I0808 08:09:21.799504 48131 net.cpp:129] Top shape: 256 256 14 12 (11010048)
I0808 08:09:21.799507 48131 net.cpp:137] Memory required for data: 3688369152
I0808 08:09:21.799512 48131 layer_factory.hpp:77] Creating layer res3_5
I0808 08:09:21.799520 48131 net.cpp:84] Creating Layer res3_5
I0808 08:09:21.799525 48131 net.cpp:406] res3_5 <- res3_3_res3_3_0_split_1
I0808 08:09:21.799530 48131 net.cpp:406] res3_5 <- conv3_5
I0808 08:09:21.799535 48131 net.cpp:380] res3_5 -> res3_5
I0808 08:09:21.799566 48131 net.cpp:122] Setting up res3_5
I0808 08:09:21.799573 48131 net.cpp:129] Top shape: 256 256 14 12 (11010048)
I0808 08:09:21.799588 48131 net.cpp:137] Memory required for data: 3732409344
I0808 08:09:21.799592 48131 layer_factory.hpp:77] Creating layer res3_5_res3_5_0_split
I0808 08:09:21.799597 48131 net.cpp:84] Creating Layer res3_5_res3_5_0_split
I0808 08:09:21.799600 48131 net.cpp:406] res3_5_res3_5_0_split <- res3_5
I0808 08:09:21.799604 48131 net.cpp:380] res3_5_res3_5_0_split -> res3_5_res3_5_0_split_0
I0808 08:09:21.799615 48131 net.cpp:380] res3_5_res3_5_0_split -> res3_5_res3_5_0_split_1
I0808 08:09:21.799657 48131 net.cpp:122] Setting up res3_5_res3_5_0_split
I0808 08:09:21.799664 48131 net.cpp:129] Top shape: 256 256 14 12 (11010048)
I0808 08:09:21.799667 48131 net.cpp:129] Top shape: 256 256 14 12 (11010048)
I0808 08:09:21.799670 48131 net.cpp:137] Memory required for data: 3820489728
I0808 08:09:21.799674 48131 layer_factory.hpp:77] Creating layer conv3_6
I0808 08:09:21.799686 48131 net.cpp:84] Creating Layer conv3_6
I0808 08:09:21.799690 48131 net.cpp:406] conv3_6 <- res3_5_res3_5_0_split_0
I0808 08:09:21.799696 48131 net.cpp:380] conv3_6 -> conv3_6
I0808 08:09:21.819303 48131 net.cpp:122] Setting up conv3_6
I0808 08:09:21.819319 48131 net.cpp:129] Top shape: 256 256 14 12 (11010048)
I0808 08:09:21.819322 48131 net.cpp:137] Memory required for data: 3864529920
I0808 08:09:21.819329 48131 layer_factory.hpp:77] Creating layer relu3_6
I0808 08:09:21.819339 48131 net.cpp:84] Creating Layer relu3_6
I0808 08:09:21.819342 48131 net.cpp:406] relu3_6 <- conv3_6
I0808 08:09:21.819347 48131 net.cpp:367] relu3_6 -> conv3_6 (in-place)
I0808 08:09:21.819490 48131 net.cpp:122] Setting up relu3_6
I0808 08:09:21.819501 48131 net.cpp:129] Top shape: 256 256 14 12 (11010048)
I0808 08:09:21.819504 48131 net.cpp:137] Memory required for data: 3908570112
I0808 08:09:21.819510 48131 layer_factory.hpp:77] Creating layer conv3_7
I0808 08:09:21.819522 48131 net.cpp:84] Creating Layer conv3_7
I0808 08:09:21.819526 48131 net.cpp:406] conv3_7 <- conv3_6
I0808 08:09:21.819531 48131 net.cpp:380] conv3_7 -> conv3_7
I0808 08:09:21.839148 48131 net.cpp:122] Setting up conv3_7
I0808 08:09:21.839164 48131 net.cpp:129] Top shape: 256 256 14 12 (11010048)
I0808 08:09:21.839169 48131 net.cpp:137] Memory required for data: 3952610304
I0808 08:09:21.839175 48131 layer_factory.hpp:77] Creating layer relu3_7
I0808 08:09:21.839182 48131 net.cpp:84] Creating Layer relu3_7
I0808 08:09:21.839186 48131 net.cpp:406] relu3_7 <- conv3_7
I0808 08:09:21.839193 48131 net.cpp:367] relu3_7 -> conv3_7 (in-place)
I0808 08:09:21.839335 48131 net.cpp:122] Setting up relu3_7
I0808 08:09:21.839344 48131 net.cpp:129] Top shape: 256 256 14 12 (11010048)
I0808 08:09:21.839347 48131 net.cpp:137] Memory required for data: 3996650496
I0808 08:09:21.839352 48131 layer_factory.hpp:77] Creating layer res3_7
I0808 08:09:21.839359 48131 net.cpp:84] Creating Layer res3_7
I0808 08:09:21.839365 48131 net.cpp:406] res3_7 <- res3_5_res3_5_0_split_1
I0808 08:09:21.839368 48131 net.cpp:406] res3_7 <- conv3_7
I0808 08:09:21.839373 48131 net.cpp:380] res3_7 -> res3_7
I0808 08:09:21.839404 48131 net.cpp:122] Setting up res3_7
I0808 08:09:21.839409 48131 net.cpp:129] Top shape: 256 256 14 12 (11010048)
I0808 08:09:21.839412 48131 net.cpp:137] Memory required for data: 4040690688
I0808 08:09:21.839416 48131 layer_factory.hpp:77] Creating layer res3_7_res3_7_0_split
I0808 08:09:21.839421 48131 net.cpp:84] Creating Layer res3_7_res3_7_0_split
I0808 08:09:21.839423 48131 net.cpp:406] res3_7_res3_7_0_split <- res3_7
I0808 08:09:21.839431 48131 net.cpp:380] res3_7_res3_7_0_split -> res3_7_res3_7_0_split_0
I0808 08:09:21.839435 48131 net.cpp:380] res3_7_res3_7_0_split -> res3_7_res3_7_0_split_1
I0808 08:09:21.839475 48131 net.cpp:122] Setting up res3_7_res3_7_0_split
I0808 08:09:21.839483 48131 net.cpp:129] Top shape: 256 256 14 12 (11010048)
I0808 08:09:21.839486 48131 net.cpp:129] Top shape: 256 256 14 12 (11010048)
I0808 08:09:21.839489 48131 net.cpp:137] Memory required for data: 4128771072
I0808 08:09:21.839493 48131 layer_factory.hpp:77] Creating layer conv3_8
I0808 08:09:21.839505 48131 net.cpp:84] Creating Layer conv3_8
I0808 08:09:21.839521 48131 net.cpp:406] conv3_8 <- res3_7_res3_7_0_split_0
I0808 08:09:21.839529 48131 net.cpp:380] conv3_8 -> conv3_8
I0808 08:09:21.859122 48131 net.cpp:122] Setting up conv3_8
I0808 08:09:21.859138 48131 net.cpp:129] Top shape: 256 256 14 12 (11010048)
I0808 08:09:21.859141 48131 net.cpp:137] Memory required for data: 4172811264
I0808 08:09:21.859148 48131 layer_factory.hpp:77] Creating layer relu3_8
I0808 08:09:21.859158 48131 net.cpp:84] Creating Layer relu3_8
I0808 08:09:21.859163 48131 net.cpp:406] relu3_8 <- conv3_8
I0808 08:09:21.859167 48131 net.cpp:367] relu3_8 -> conv3_8 (in-place)
I0808 08:09:21.859313 48131 net.cpp:122] Setting up relu3_8
I0808 08:09:21.859321 48131 net.cpp:129] Top shape: 256 256 14 12 (11010048)
I0808 08:09:21.859324 48131 net.cpp:137] Memory required for data: 4216851456
I0808 08:09:21.859329 48131 layer_factory.hpp:77] Creating layer conv3_9
I0808 08:09:21.859340 48131 net.cpp:84] Creating Layer conv3_9
I0808 08:09:21.859344 48131 net.cpp:406] conv3_9 <- conv3_8
I0808 08:09:21.859349 48131 net.cpp:380] conv3_9 -> conv3_9
I0808 08:09:21.878980 48131 net.cpp:122] Setting up conv3_9
I0808 08:09:21.878995 48131 net.cpp:129] Top shape: 256 256 14 12 (11010048)
I0808 08:09:21.878999 48131 net.cpp:137] Memory required for data: 4260891648
I0808 08:09:21.879006 48131 layer_factory.hpp:77] Creating layer relu3_9
I0808 08:09:21.879014 48131 net.cpp:84] Creating Layer relu3_9
I0808 08:09:21.879019 48131 net.cpp:406] relu3_9 <- conv3_9
I0808 08:09:21.879024 48131 net.cpp:367] relu3_9 -> conv3_9 (in-place)
I0808 08:09:21.879168 48131 net.cpp:122] Setting up relu3_9
I0808 08:09:21.879178 48131 net.cpp:129] Top shape: 256 256 14 12 (11010048)
I0808 08:09:21.879180 48131 net.cpp:137] Memory required for data: 4304931840
I0808 08:09:21.879185 48131 layer_factory.hpp:77] Creating layer res3_9
I0808 08:09:21.879194 48131 net.cpp:84] Creating Layer res3_9
I0808 08:09:21.879199 48131 net.cpp:406] res3_9 <- res3_7_res3_7_0_split_1
I0808 08:09:21.879202 48131 net.cpp:406] res3_9 <- conv3_9
I0808 08:09:21.879207 48131 net.cpp:380] res3_9 -> res3_9
I0808 08:09:21.879238 48131 net.cpp:122] Setting up res3_9
I0808 08:09:21.879256 48131 net.cpp:129] Top shape: 256 256 14 12 (11010048)
I0808 08:09:21.879259 48131 net.cpp:137] Memory required for data: 4348972032
I0808 08:09:21.879262 48131 layer_factory.hpp:77] Creating layer conv4_1
I0808 08:09:21.879273 48131 net.cpp:84] Creating Layer conv4_1
I0808 08:09:21.879277 48131 net.cpp:406] conv4_1 <- res3_9
I0808 08:09:21.879284 48131 net.cpp:380] conv4_1 -> conv4_1
I0808 08:09:21.890135 48131 net.cpp:122] Setting up conv4_1
I0808 08:09:21.890151 48131 net.cpp:129] Top shape: 256 512 7 6 (5505024)
I0808 08:09:21.890153 48131 net.cpp:137] Memory required for data: 4370992128
I0808 08:09:21.890161 48131 layer_factory.hpp:77] Creating layer relu4_1
I0808 08:09:21.890168 48131 net.cpp:84] Creating Layer relu4_1
I0808 08:09:21.890172 48131 net.cpp:406] relu4_1 <- conv4_1
I0808 08:09:21.890178 48131 net.cpp:367] relu4_1 -> conv4_1 (in-place)
I0808 08:09:21.890303 48131 net.cpp:122] Setting up relu4_1
I0808 08:09:21.890312 48131 net.cpp:129] Top shape: 256 512 7 6 (5505024)
I0808 08:09:21.890316 48131 net.cpp:137] Memory required for data: 4393012224
I0808 08:09:21.890321 48131 layer_factory.hpp:77] Creating layer conv4_1_relu4_1_0_split
I0808 08:09:21.890328 48131 net.cpp:84] Creating Layer conv4_1_relu4_1_0_split
I0808 08:09:21.890332 48131 net.cpp:406] conv4_1_relu4_1_0_split <- conv4_1
I0808 08:09:21.890337 48131 net.cpp:380] conv4_1_relu4_1_0_split -> conv4_1_relu4_1_0_split_0
I0808 08:09:21.890343 48131 net.cpp:380] conv4_1_relu4_1_0_split -> conv4_1_relu4_1_0_split_1
I0808 08:09:21.890388 48131 net.cpp:122] Setting up conv4_1_relu4_1_0_split
I0808 08:09:21.890395 48131 net.cpp:129] Top shape: 256 512 7 6 (5505024)
I0808 08:09:21.890399 48131 net.cpp:129] Top shape: 256 512 7 6 (5505024)
I0808 08:09:21.890403 48131 net.cpp:137] Memory required for data: 4437052416
I0808 08:09:21.890405 48131 layer_factory.hpp:77] Creating layer conv4_2
I0808 08:09:21.890430 48131 net.cpp:84] Creating Layer conv4_2
I0808 08:09:21.890434 48131 net.cpp:406] conv4_2 <- conv4_1_relu4_1_0_split_0
I0808 08:09:21.890441 48131 net.cpp:380] conv4_2 -> conv4_2
I0808 08:09:21.962028 48131 net.cpp:122] Setting up conv4_2
I0808 08:09:21.962044 48131 net.cpp:129] Top shape: 256 512 7 6 (5505024)
I0808 08:09:21.962049 48131 net.cpp:137] Memory required for data: 4459072512
I0808 08:09:21.962056 48131 layer_factory.hpp:77] Creating layer relu4_2
I0808 08:09:21.962062 48131 net.cpp:84] Creating Layer relu4_2
I0808 08:09:21.962066 48131 net.cpp:406] relu4_2 <- conv4_2
I0808 08:09:21.962074 48131 net.cpp:367] relu4_2 -> conv4_2 (in-place)
I0808 08:09:21.962210 48131 net.cpp:122] Setting up relu4_2
I0808 08:09:21.962219 48131 net.cpp:129] Top shape: 256 512 7 6 (5505024)
I0808 08:09:21.962222 48131 net.cpp:137] Memory required for data: 4481092608
I0808 08:09:21.962227 48131 layer_factory.hpp:77] Creating layer conv4_3
I0808 08:09:21.962239 48131 net.cpp:84] Creating Layer conv4_3
I0808 08:09:21.962241 48131 net.cpp:406] conv4_3 <- conv4_2
I0808 08:09:21.962249 48131 net.cpp:380] conv4_3 -> conv4_3
I0808 08:09:22.034272 48131 net.cpp:122] Setting up conv4_3
I0808 08:09:22.034291 48131 net.cpp:129] Top shape: 256 512 7 6 (5505024)
I0808 08:09:22.034294 48131 net.cpp:137] Memory required for data: 4503112704
I0808 08:09:22.034301 48131 layer_factory.hpp:77] Creating layer relu4_3
I0808 08:09:22.034308 48131 net.cpp:84] Creating Layer relu4_3
I0808 08:09:22.034312 48131 net.cpp:406] relu4_3 <- conv4_3
I0808 08:09:22.034319 48131 net.cpp:367] relu4_3 -> conv4_3 (in-place)
I0808 08:09:22.035549 48131 net.cpp:122] Setting up relu4_3
I0808 08:09:22.035562 48131 net.cpp:129] Top shape: 256 512 7 6 (5505024)
I0808 08:09:22.035565 48131 net.cpp:137] Memory required for data: 4525132800
I0808 08:09:22.035571 48131 layer_factory.hpp:77] Creating layer res4_3
I0808 08:09:22.035580 48131 net.cpp:84] Creating Layer res4_3
I0808 08:09:22.035584 48131 net.cpp:406] res4_3 <- conv4_1_relu4_1_0_split_1
I0808 08:09:22.035588 48131 net.cpp:406] res4_3 <- conv4_3
I0808 08:09:22.035593 48131 net.cpp:380] res4_3 -> res4_3
I0808 08:09:22.035629 48131 net.cpp:122] Setting up res4_3
I0808 08:09:22.035635 48131 net.cpp:129] Top shape: 256 512 7 6 (5505024)
I0808 08:09:22.035637 48131 net.cpp:137] Memory required for data: 4547152896
I0808 08:09:22.035640 48131 layer_factory.hpp:77] Creating layer fc5
I0808 08:09:22.035650 48131 net.cpp:84] Creating Layer fc5
I0808 08:09:22.035653 48131 net.cpp:406] fc5 <- res4_3
I0808 08:09:22.035660 48131 net.cpp:380] fc5 -> fc5
I0808 08:09:22.123373 48131 net.cpp:122] Setting up fc5
I0808 08:09:22.123410 48131 net.cpp:129] Top shape: 256 512 (131072)
I0808 08:09:22.123414 48131 net.cpp:137] Memory required for data: 4547677184
I0808 08:09:22.123425 48131 layer_factory.hpp:77] Creating layer fc6
I0808 08:09:22.123442 48131 net.cpp:84] Creating Layer fc6
I0808 08:09:22.123448 48131 net.cpp:406] fc6 <- fc5
I0808 08:09:22.123456 48131 net.cpp:406] fc6 <- label_data_1_split_0
I0808 08:09:22.123466 48131 net.cpp:380] fc6 -> fc6
I0808 08:09:22.123494 48131 net.cpp:380] fc6 -> lambda
I0808 08:09:22.166802 48131 net.cpp:122] Setting up fc6
I0808 08:09:22.166822 48131 net.cpp:129] Top shape: 256 10572 (2706432)
I0808 08:09:22.166827 48131 net.cpp:129] Top shape: 1 (1)
I0808 08:09:22.166831 48131 net.cpp:137] Memory required for data: 4558502916
I0808 08:09:22.166836 48131 layer_factory.hpp:77] Creating layer softmax_loss
I0808 08:09:22.166846 48131 net.cpp:84] Creating Layer softmax_loss
I0808 08:09:22.166849 48131 net.cpp:406] softmax_loss <- fc6
I0808 08:09:22.166856 48131 net.cpp:406] softmax_loss <- label_data_1_split_1
I0808 08:09:22.166860 48131 net.cpp:380] softmax_loss -> softmax_loss
…
